src/hint/checkpoints/admet_model.ckpt (torch, 268451 bytes, 49 tensors)

weight f4 [50, 50]
0.08272413 0.087188214 0.007835016 0.05140771 -0.09409662 -0.061067753 0.04458088 -0.030425964
0.0657386 0.09649872 0.12663268 -0.10962956 -0.10816339 0.045918185 0.033720817 -0.13330723
0.0054529766 -0.11440923 -0.016683342 0.007840191 -0.011431844 0.10287785 -0.11899784 0.0024578357
-0.13750921 -0.0986725 -0.0508903 -0.12692584 0.028647147 0.13007581 0.10817841 0.030262096
-0.13939315 0.08335946 -0.03015393 -0.048260216 0.01957981 -0.055816624 0.11355901 -0.026931247
0.105034046 -0.016612165 0.0016867844 0.11773358 0.00918245 -0.077982865 -0.128935 -0.046419106
-0.08533372 0.049840607 -0.06040151 -0.09396942 -0.07091208 -0.013713995 -0.06508163 0.12940033
-0.09195015 -0.06763737 0.021153117 0.055736747 -0.030328756 -0.10029996 -0.13771519 0.10020579
-0.041211426 -0.020755334 0.13573536 -0.1243283 0.12317272 0.026732752 -0.039843507 -0.08150323
0.13094915 -0.033138823 -0.08068591 -0.014834596 0.069966555 -0.03448681 -0.007818746 0.08485329
-0.043344934 0.109707445 0.11552286 -0.045896303 0.11792706 0.0055760453 -0.13388035 0.087673694
0.08881761 0.113696896 -0.038297392 0.014918299 -0.06061813 0.09499767 -0.04544712 -0.0755381
-0.11943924 0.0024624888 0.11142847 0.057264388 -0.042533353 -0.04530257 -0.054192994 0.028267268
-0.02180442 -0.07174077 -0.14099076 -0.11412209 -0.0075957053 0.11361061 -0.04306363 -0.057901833
0.026951917 -0.017299663 0.008823899 0.07455789 0.05900851 0.041064654 0.07401901 -0.0506972
0.046132207 0.05818568 -0.13715462 0.08705759 0.03438487 0.063251585 0.03912568 0.06951243
-0.104288235 0.00058631325 -0.12120794 -0.07699078 0.048001606 -0.084244594 0.021532657 -0.025415191
-0.0582238 -0.056123473 0.005914771 -0.11329406 0.04976518 -0.040100336 0.0888767 -0.04064165
-0.119973406 -0.093500026 0.1373948 0.11815313 0.02992772 -0.10669141 0.09911675 0.028280014
-0.031710178 -0.04361007 0.1261937 0.07585588 -0.09829499 -0.07540124 0.00805192 -0.12990452
0.068797976 0.06221814 0.13108817 0.045218647 -0.09357526 -0.053438634 -0.047708783 0.1324039
-0.0457469 0.06800954 -0.09836392 -0.11856833 0.026766486 0.12772062 0.12457476 0.067813106
0.08746043 0.040448163 0.12722732 0.025849203 -0.13080762 -0.09851939 0.121527426 0.06559798
0.1108278 -0.13539745 0.059436046 0.107173726 -0.09244637 -0.009262866 0.10775417 0.10469495
-0.109466515 -0.12304947 -0.077341765 0.1345622 0.1087541 0.0026663952 0.11957181 -0.13691625
0.023941772 -0.08614078 -0.09369164 -0.058834795 0.028660566 0.01809494 0.08890641 0.0341917
-0.09676025 0.023356166 -0.059604768 0.072089404 -0.08228097 -0.12515385 -0.0027158589 0.04869757
-0.043346014 -0.03972457 0.052172188 0.1348492 -0.11985143 -0.014166349 -0.013712241 -0.048921637
0.026744233 0.033777244 0.03146635 0.020976825 -0.08509227 0.08350739 0.042959172 0.0048882593
0.06709674 0.074716486 -0.1136097 0.11961316 0.04965848 -0.01668877 -0.0019697414 -0.050502244
-0.10558976 0.10527181 -0.06764662 0.0580674 -0.06863077 0.11403163 0.0061118496 -0.12092774
-0.06078908 -0.02930285 -0.062285308 0.10214817 -0.06488021 0.061098956 0.043174762 0.051622406
00000000: 456b a93d bc8f b23d 705e 003c e490 523d
00000010: bbb5 c0bd 2e22 7abd 719a 363d df3f f9bc
00000020: f6a1 863d 1fa1 c53d ffab 013e 7685 e0bd
00000030: c484 ddbd b514 3c3d d71e 0a3d b181 08be
00000040: e2ae b23b 634f eabd 81ab 88bc 2574 003c
00000050: a14c 3bbc 9fb1 d23d 24b5 f3bd a413 213b
00000060: 37cf 0cbe cf14 cabd 5972 50bd d9f8 01be
00000070: 6cad ea3c 9832 053e a48c dd3d 37e8 f73c
00000080: 14bd 0ebe 5db8 aa3d 6005 f7bc 81ac 45bd
00000090: d665 a03c f99f 64bd a091 e83d eb9e dcbc
000000a0: 171c d73d 3c16 88bc 1817 dd3a 4e1e f13d
000000b0: fd71 163c 7bb5 9fbd 8907 04be f621 3ebd
000000c0: 72c3 aebd aa25 4c3d 9367 77bd 0a73 c0bd
000000d0: 5a3a 91bd aab0 60bc 8549 85bd 8581 043e
000000e0: 5c50 bcbd 7685 8abd 4d49 ad3c 374c 643d
000000f0: 0374 f8bc 116a cdbd 3605 0dbe b138 cd3d
00000100: 50cd 28bd 1707 aabc 36fe 0a3e d69f febd
00000110: fb41 fc3d a5fe da3c f232 23bd 2aeb a6bd
00000120: 8917 063e 93bc 07bd a83e a5bd ce0c 73bc
00000130: a04a 8f3d 0b42 0dbd 331a 00bc 90c7 ad3d
00000140: 758a 31bd 4cae e03d 4097 ec3d c3fd 3bbd
00000150: be83 f13d 42b7 b63b ee17 09be 448e b33d
00000160: 02e6 b53d ebd9 e83d badd 1cbd e26b 743c
00000170: b74a 78bd 238e c23d c226 3abd b8b3 9abd
00000180: 8f9c f4bd b561 213b 9c34 e43d 108e 6a3d
00000190: 7437 2ebd 308f 39bd 79f9 5dbd c290 e73c
000001a0: 2f9f b2bc d3ec 92bd e25f 10be d8b8 e9bd
000001b0: 65e5 f8bb aeac e83d 7d63 30bd 792a 6dbd
000001c0: 44ca dc3c 06b8 8dbc 1d92 103c cfb1 983d
000001d0: e8b2 713d 6933 283d 4797 973d dea7 4fbd
000001e0: 20f5 3c3d 1c54 6e3d 4372 0cbe 404b b23d
000001f0: 26d7 0c3d 0c8a 813d 4042 203d 885c 8e3d
00000200: 1295 d5bd d1b2 193a de3b f8bd 58ad 9dbd
00000210: 559d 443d 6e88 acbd 4165 b03c 8533 d0bc
00000220: 147c 6ebd bae1 65bd b2d0 c13b b706 e8bd
00000230: 93d6 4b3d 4040 24bd fd04 b63d dc77 26bd
00000240: 9eb4 f5bd f17c bfbd 39b1 0c3e 45fa f13d
00000250: fa2a f53c 0781 dabd b9fd ca3d 7dab e73c
00000260: 88e2 01bd 79a0 32bd ec38 013e 545a 9b3d
00000270: e24e c9bd f76b 9abd 33ec 033c b105 05be
00000280: f4e5 8c3d 73d8 7e3d fa3b 063e 3037 393d
00000290: 63a4 bfbd 78e2 5abd 496a 43bd e394 073e
000002a0: 1a61 3bbd 9648 8b3d 0673 c9bd f4d3 f2bd
000002b0: 6445 db3c 32c9 023e 0d21 ff3d 99e1 8a3d
000002c0: 741e b33d f9ac 253d e147 023e b5c1 d33c
000002d0: 6ff2 05be 89c4 c9bd 5fe3 f83d 3c58 863d
000002e0: b0f9 e23d a1a5 0abe 3673 733d e67d db3d
000002f0: 8654 bdbd 47c3 17bc 38ae dc3d 4e6a d63d
00000300: fb2f e0bd 5c01 fcbd 5c65 9ebd acca 093e
00000310: 78ba de3d b0be 2e3b 11e2 f43d c633 0cbe
00000320: 8921 c43c 946a b0bd 67e1 bfbd c1fc 70bd
00000330: 90c9 ea3c d73b 943c 9014 b63d 990c 0c3d
00000340: 3d2a c6bd 6e55 bf3c 2124 74bd 9ca3 933d
00000350: ed82 a8bd 5528 00be 8dfc 31bb 1a77 473d
00000360: 978b 31bd 3bb6 22bd 81b2 553d e915 0a3e
00000370: ab74 f5bd f919 68bc 4fa9 60bc 0e62 48bd
00000380: b916 db3c 025a 0a3d dce2 003d 97d7 ab3c
00000390: db44 aebd ec05 ab3d f5f5 2f3d b12d a03b
000003a0: 046a 893d f504 993d 34ac e8bd bff7 f43d
000003b0: b166 4b3d e3b6 88bc c716 01bb 71db 4ebd
000003c0: 723f d8bd bf98 d73d 508a 8abd 15d8 6d3d
000003d0: 4a8e 8cbd 6a89 e93d e945 c83b f7a8 f7bd
000003e0: f8fd 78bd 880c f0bc e11e 7fbd 0f33 d13d
000003f0: eadf 84bd e642 7a3d 05d8 303d 0472 533d

weight f4 [50, 50]
-0.038799666 0.027034188 0.021266727 -0.045415692 0.013749331 -0.10141635 0.054671023 0.0045067794
-0.049678814 -0.0765987 -0.060109753 0.04258892 0.1367167 0.12990123 -0.02777582 -0.11717554
0.10760814 -0.051782396 0.035781022 0.11865419 -0.106194854 -0.116645016 -0.041726463 0.13275106
0.015506248 -0.107559554 0.121147916 0.067697234 -0.064220436 -0.051442254 0.04334119 0.0016665877
-0.0567403 -0.11295941 -0.07438059 -0.008705061 0.0933738 -0.042311005 0.10948905 -0.12804064
-0.0124723995 -0.015565489 -0.025122557 -0.1406239 -0.12589706 -0.1062763 -0.13306098 0.0021241507
0.088690765 0.081158616 0.02426846 0.09360436 -0.047086865 0.062395915 -0.023015855 0.12443767
-0.09061467 -0.039922997 -0.12139437 -0.0005797215 -0.046896394 -0.08575102 0.08070618 -0.06363063
-0.12714157 -0.10662882 0.0077167004 0.07984461 0.0032650323 0.073041536 -0.12467654 -0.05140729
-0.076544866 -0.034742594 -0.11342626 -0.058660306 0.12838267 -0.103364125 -0.10885862 0.055226568
-0.07228662 0.021177746 0.0588747 -0.06454932 0.13425407 -0.027208861 -0.13678108 0.12564418
0.07378838 0.13171442 0.0777989 -0.13728833 -0.048975382 -0.10383814 -0.09346003 0.033083037
0.0907579 -0.070327245 -0.037898093 -0.05940949 0.07302557 -0.050867844 0.08451868 -0.003890694
0.0052889916 -0.08559629 -0.07761806 0.014581006 0.020512518 0.037001953 -0.085047744 0.08028157
-0.011106015 -0.13899961 0.1316803 -0.098035194 0.104047135 -0.02447407 0.07997948 -0.124120586
0.037851598 -0.13677701 0.096391484 0.008346257 -0.13661842 0.12577544 0.12427476 -0.13747983
0.047115188 -0.057110026 -0.13784178 -0.06769076 -0.0055961576 0.11673012 -0.0018729217 0.05790534
-0.13498835 0.046809018 -0.13467894 0.031207029 0.00452524 0.054071527 -0.052212294 0.13804847
0.019643417 -0.11015961 0.043244455 0.07727325 0.10466552 -0.0042351517 -0.0077347225 -0.12818222
0.052013226 -0.08863417 -0.027245477 0.11737741 -0.11576335 0.019802276 -0.0030013279 0.055022698
-0.035175238 0.11257427 0.07199301 -0.08759435 0.11112946 0.12680276 -0.010789257 0.12662803
0.12180088 -0.0073943445 -0.0120184105 0.11159613 0.01127317 0.066735916 -0.06410109 -0.11234218
0.059131052 0.1151422 -0.113844395 0.11133643 0.037675273 -7.4633645e-05 0.08449956 0.05742402
0.095624544 0.09410174 -0.045304004 0.06124627 0.07925579 -0.12839858 -0.040579863 0.04599169
-0.017606981 0.02420411 -0.085935034 -0.13902384 -0.08682226 -0.12984459 0.1336505 -0.07865814
-0.11761604 0.047368743 -0.020142063 -0.03550963 -0.09578194 0.13178104 -0.024495041 -0.08914693
-0.08270426 0.05819332 0.10533552 0.069367796 0.06907365 0.1090222 -0.011073057 -0.100400776
-0.037042174 -0.0017381024 -0.13124256 0.11313998 -0.01308825 -0.11571877 0.040187947 -0.042758435
-0.12163913 0.018506885 0.016555771 -0.0028901782 -0.0008253871 -0.075442016 0.032504242 -0.036126696
0.05807123 -0.07187065 -0.0058132643 -0.1084133 0.013417046 0.05974901 -0.011359048 0.06762203
-0.1208318 0.017843712 0.04732078 0.11681305 -0.12050068 -0.07906911 -0.11736293 -0.072625786
-0.054889277 -0.029371921 -0.028927205 0.13443238 -0.09451249 0.0888982 0.11620155 0.038998228
00000000: 66ec 1ebd cd76 dd3c 8f37 ae3c ce05 3abd
00000010: e044 613c 60b3 cfbd b9ee 5f3d 9bad 933b
00000020: 037c 4bbd c7df 9cbd a535 76bd b871 2e3d
00000030: 76ff 0b3e d404 053e 1e8a e3bc bbf9 efbd
00000040: a861 dc3d c719 54bd 1f8f 123d f800 f33d
00000050: b07c d9bd 95e3 eebd 5ee9 2abd e5ef 073e
00000060: eb0d 7e3c 2f48 dcbd 661c f83d d9a4 8a3d
00000070: 0186 83bd 1db5 52bd 8886 313d 6771 da3a
00000080: 8468 68bd 4357 e7bd da54 98bd ac9f 0ebc
00000090: c33a bf3d 4e4e 2dbd cc3b e03d 161d 03be
000000a0: 0959 4cbc 6506 7fbc d2cd cdbc b6ff 0fbe
000000b0: 29eb 00be 64a7 d9bd 2341 08be 5635 0b3b
000000c0: 81a3 b53d 7d36 a63d a6ce c63c a5b3 bf3d
000000d0: 28de 40bd dc92 7f3d bf8b bcbc 2dd9 fe3d
000000e0: 2f94 b9bd 4c86 23bd 9d9d f8bd 74f8 17ba
000000f0: 6f16 40bd 3b9e afbd 4849 a53d c750 82bd
00000100: 6631 02be 3660 dabd 60dc fc3b 9285 a33d
00000110: 27fa 553b cd96 953d 6a56 ffbd 7390 52bd
00000120: 8ec3 9cbd 404e 0ebd 074c e8bd ca45 70bd
00000130: bf76 033e 92b0 d3bd 45f1 debd 4135 623d
00000140: 020b 94bd f47c ad3c 9926 713d 6f32 84bd
00000150: e679 093e 1ee5 debc 5710 0cbe dea8 003e
00000160: 5d1e 973d 25e0 063e 0855 9f3d 5095 0cbe
00000170: 699a 48bd 17a9 d4bd f967 bfbd 1482 073d
00000180: 47df b93d bb07 90bd 083b 1bbd 5e57 73bd
00000190: 6e8e 953d cd5a 50bd 2118 ad3d 03fb 7ebb
000001a0: 474f ad3b 1c4d afbd 38f6 9ebd 2ce5 6e3c
000001b0: de09 a83c 5c8f 173d 832d aebd aa6a a43d
000001c0: 01f6 35bc ea55 0ebe 33d7 063e adc6 c8bd
000001d0: aa16 d53d d87d c8bc 48cc a33d ef32 febd
000001e0: 470a 1b3d 460f 0cbe e668 c53d bdbe 083c
000001f0: b3e5 0bbe 47cb 003e c483 fe3d 83c7 0cbe
00000200: dbfb 403d 34ec 69bd 6526 0dbe 74a1 8abd
00000210: f95f b7bb 3310 ef3d d37c f5ba 262e 6d3d
00000220: 633a 0abe d0ba 3f3d 47e9 09be e2a5 ff3c
00000230: 7748 943b 1b7a 5d3d 8fdc 55bd 945c 0d3e
00000240: 3beb a03c 5d9b e1bd 1921 313d 7041 9e3d
00000250: e05a d63d 07c7 8abb 8e73 fdbb 3342 03be
00000260: d20b 553d d585 b5bd e831 dfbc 9163 f03d
00000270: 5615 edbd 6238 a23c edb1 44bb 7b5f 613d
00000280: e913 10bd 578d e63d 1271 933d ab64 b3bd
00000290: d897 e33d 95d8 013e 6cc5 30bc c7aa 013e
000002a0: bd72 f93d 424c f2bb dee8 44bc 838c e43d
000002b0: 1ab3 383c d7ac 883d 6f47 83bd a813 e6bd
000002c0: 6733 723d accf eb3d 4027 e9bd 5b04 e43d
000002d0: 6351 1a3d a284 9cb8 1b0e ad3d 7335 6b3d
000002e0: cdd6 c33d 6ab8 c03d b190 39bd 5edd 7a3d
000002f0: dc50 a23d eb7a 03be 1237 26bd c861 3c3d
00000300: 843c 90bc b347 c63c b5fe afbd 445c 0ebe
00000310: decf b1bd fbf5 04be addb 083e 8517 a1bd
00000320: aee0 f0bd ba05 423d f800 a5bc 8c72 11bd
00000330: 5229 c4bd 9cf1 063e d3a9 c8bc aa92 b6bd
00000340: da60 a9bd 1e5c 6e3d 26ba d73d b410 8e3d
00000350: 7c76 8d3d 0847 df3d c46b 35bc ec9e cdbd
00000360: 89b9 17bd 0ad1 e3ba 7364 06be efb5 e73d
00000370: 1970 56bc f6fd ecbd 1e9c 243d 7823 2fbd
00000380: f01d f9bd c09b 973c f89f 873c 2569 3dbb
00000390: ca5e 58ba 5881 9abd 2b23 053d 96f9 13bd
000003a0: 19dc 6d3d eb30 93bd 327d bebb cb07 debd
000003b0: 2bd3 5b3c 61bb 743d 4d1b 3abc 6b7d 8a3d
000003c0: aa76 f7bd fa2c 923c 6fd3 413d ae3b ef3d
000003d0: 0fc9 f6bd fcee a1bd fa5b f0bd d4bc 94bd
000003e0: 94d3 60bd 629d f0bc bff8 ecbc a4a8 093e
000003f0: c48f c1bd 4210 b63d 14fb ed3d 9bbc 1f3d

weight f4 [50, 89]
0.014108765 -0.030215472 -0.084836625 0.011673322 0.058343172 -0.05712779 -0.052381217 -0.08663097
-0.099792086 -0.042045128 -0.036735 -0.08120929 0.07969686 -0.07572003 0.035374943 0.10438254
0.021997748 0.06739296 0.03646058 0.014019895 -0.07704095 0.06889061 0.020644996 -0.0154726235
0.023637163 0.07545935 -0.009659876 -0.09466347 0.0016881783 -0.062161375 -0.031128371 -0.08337673
0.095322095 -0.07468971 0.10110763 0.047760047 0.051535454 0.09257506 -0.10094873 0.041083403
-0.06727604 0.071612984 -0.08180902 0.08467145 -0.05705575 0.030949367 0.09597704 0.06730171
0.10554911 -0.07856892 -0.068845764 -0.005037304 0.06956206 0.011526957 -0.009576225 -0.023383958
0.029354634 0.07526556 0.022319488 -0.0751063 0.0064349645 -0.019765519 -0.070880905 0.004811218
-0.08795773 -0.03706907 0.02970353 0.033520497 0.09752396 -0.0010142919 0.020012252 0.101108395
-0.032078106 -0.09488031 -0.08523732 -0.032217596 0.050033215 0.09107717 0.1038221 -0.029493669
-0.057594795 0.034971368 -0.08585704 0.004350061 0.07645526 -0.10447582 0.05750633 -0.072232254
-0.06472342 0.07203087 -0.058113962 0.05955833 0.092351854 0.036055613 -0.011563438 -0.074777484
0.049637336 0.077475615 0.01553444 -0.093481295 -0.02332846 -0.0007480354 0.04216263 0.041038696
0.09023538 0.03733523 0.04574953 -0.020318313 -0.06493848 0.01207495 0.09525955 0.03602693
0.06453935 0.06149248 0.02249019 -0.062358905 0.061018966 -0.028998256 0.05699838 0.10167366
-0.04600017 -0.06107785 -0.004180964 -0.07000747 0.010145206 0.056781 0.049274553 -0.026855882
0.097228944 -0.00027556936 0.04200353 -0.043718535 -0.06775629 -0.10238438 -0.1015611 -0.061071508
0.01923063 0.04059753 -0.07181776 -0.040928673 0.07530038 -0.044665173 -0.07019413 -0.091864035
0.024212133 0.040228616 -0.010291609 0.09043256 0.011617268 -0.013498021 -0.07672192 0.0077172816
-0.038038418 0.03775405 0.046125963 -0.009654658 -0.095891535 0.033453006 -0.0076287403 0.053548254
-0.03513914 -0.07201043 0.05634437 0.015392877 -0.00792315 -0.07216516 -0.08383648 0.07509346
-0.07207522 0.055042733 0.028430829 -0.06322069 0.05655068 0.0033999356 -0.06797613 0.086165376
0.08851448 0.002251056 0.016133785 -0.08219371 0.022235118 0.051781643 -0.097517766 0.07008081
-0.09775972 -0.10463008 -0.053512935 0.046722025 -0.027878035 -0.0064518084 0.0967959 0.07438749
-0.038028218 -0.034437552 -0.028218515 0.0517814 -0.03262583 0.07942554 0.010889046 0.10281998
-0.0505398 -0.092474476 0.026244191 -0.020536818 0.009660243 0.011099286 -0.0410045 -0.017545877
-0.057628494 -0.060533598 0.09610316 -0.00072642753 0.08978015 -0.04977028 0.081878096 0.049490757
0.03063441 0.0070559178 0.05110921 0.018584076 -0.016708175 0.025781872 0.051959015 -0.025610438
0.054738835 0.0036196657 -0.0709589 -0.0241951 -0.041947957 0.030271918 -0.037486773 -0.065530986
0.09358604 0.037246093 -0.027884504 -0.09096672 -0.05270101 0.069776066 -0.0975789 -0.08279388
0.08166982 0.0026445207 0.055954076 0.05344886 0.016714493 -0.03314998 0.043439906 0.09969945
-0.048965283 0.05577745 0.08308083 0.064049244 0.0972087 -0.079374015 0.060844373 0.0930382
00000000: 7328 673c 7086 f7bc d3be adbd 7641 3f3c
00000010: 40f9 6e3d d4fe 69bd b08d 56bd 946b b1bd
00000020: cb5f ccbd 8337 2cbd 7077 16bd 0e51 a6bd
00000030: 1b38 a33d 1a13 9bbd 51e5 103d 83c6 d53d
00000040: 9f34 b43c 5205 8a3d b057 153d b4b3 653c
00000050: a5c7 9dbd 8516 8d3d b21f a93c e380 7dbc
00000060: b9a2 c13c 6f8a 9a3d 7544 1ebc ecde c1bd
00000070: dd45 dd3a ed9c 7ebd ed00 ffbc 6bc1 aabd
00000080: 3b38 c33d ebf6 98bd 8411 cf3d 0aa0 433d
00000090: d716 533d fe97 bd3d 35be cebd 1247 283d
000000a0: 05c8 89bd d4a9 923d 7d8b a7bd 3a68 ad3d
000000b0: 4ab3 69bd 8789 fd3c 9c8f c43d 7bd5 893d
000000c0: 222a d83d bee8 a0bd 02ff 8cbd f80f a5bb
000000d0: 8e76 8e3d 90db 3c3c 99e5 1cbc b78f bfbc
000000e0: 2179 f03c d424 9a3d 5cd7 b63c 55d1 99bd
000000f0: 65dc d23b 4ceb a1bc 022a 91bd 6ca7 9d3b
00000100: 2f23 b4bd bdd5 17bd d154 f33c ca4c 093d
00000110: a4ba c73d fdf1 84ba bcf0 a33c eb11 cf3d
00000120: 5564 03bd 9c50 c2bd e790 aebd 99f6 03bd
00000130: a1ef 4c3d ab86 ba3d aea0 d43d b59c f1bc
00000140: 85e8 6bbd 233e 0f3d d1d5 afbd f58a 8e3b
00000150: 9394 9c3d 6bf7 d5bd c28b 6b3d 81ee 93bd
00000160: b68d 84bd ec84 933d e808 6ebd 6ff3 733d
00000170: f822 bd3d 0daf 133d 9374 3dbc f024 99bd
00000180: 8550 4b3d 89ab 9e3d 2a84 7e3c 1f73 bfbd
00000190: 541b bfbc ce17 44ba b9b2 2c3d 3118 283d
000001a0: 54cd b83d d3ec 183d dc63 3b3d 9772 a6bc
000001b0: 77fe 84bd 03d6 453c 7017 c33d f990 133d
000001c0: 352d 843d 8adf 7b3d 593d b83c 0d6c 7fbd
000001d0: 06ef 793d c08d edbc 2277 693d 483a d03d
000001e0: ad6a 3cbd c52c 7abd 7800 89bb 1460 8fbd
000001f0: 1438 263c 3293 683d 1dd4 493d de00 dcbc
00000200: f81f c73d 4b7a 90b9 e50b 2c3d 3512 33bd
00000210: cfc3 8abd e7ae d1bd 44ff cfbd 1e26 7abd
00000220: 8e89 9d3c 9849 263d 3115 93bd d3a4 27bd
00000230: 1637 9a3d d4f2 36bd f1c1 8fbd 3623 bcbd
00000240: 8658 c63c c3c6 243d 239e 28bc b534 b93d
00000250: 5b56 3e3c ce26 5dbc 6220 9dbd 40e1 fc3b
00000260: 2cce 1bbd fea3 1a3d 94ee 3c3d 922e 1ebc
00000270: c862 c4bd 0506 093d 83fa f9bb 6a55 5b3d
00000280: 0fee 0fbd 347a 93bd 5bc9 663d 6832 7c3c
00000290: 1ad0 01bc 54cb 93bd 76b2 abbd 9aca 993d
000002a0: 2c9c 93bd 7d74 613d c5e7 e83c d979 81bd
000002b0: b0a1 673d 74d1 5e3b 1237 8bbd 7977 b03d
000002c0: 1447 b53d 7486 133b 002b 843c 2d55 a8bd
000002d0: 6c26 b63c fd18 543d 65b7 c7bd 8786 8f3d
000002e0: 4036 c8bd 4c48 d6bd 6130 5bbd 985f 3f3d
000002f0: 7a60 e4bc b169 d3bb ee3c c63d 7858 983d
00000300: 7ac3 1bbd 640e 0dbd 842a e7bc bc18 543d
00000310: aaa2 05bd dca9 a23d f867 323c 4893 d23d
00000320: d202 4fbd 4263 bdbd 0ffe d63c d43c a8bc
00000330: ff45 1e3c c8d9 353c 56f4 27bd 5fbc 8fbc
00000340: db0b 6cbd 14f2 77bd bcd1 c43d ba6d 3eba
00000350: a8de b73d ecdb 4bbd b4af a73d d2b6 4a3d
00000360: 04f5 fa3c 5435 e73b e457 513d a23d 983c
00000370: 95df 88bc 8134 d33c fad2 543d fbcc d1bc
00000380: d435 603d ea37 6d3b e652 91bd cd34 c6bc
00000390: 9fd1 2bbd d0fc f73c bb8b 19bd 1c35 86bd
000003a0: 0aaa bf3d 5c8f 183d 0b6e e4bc c24c babd
000003b0: 04dd 57bd c1e6 8e3d 72d7 c7bd d68f a9bd
000003c0: 8242 a73d b24f 2d3b 1a30 653d 31ed 5a3d
000003d0: d5ec 883c 46c8 07bd 0bee 313d 3a2f cc3d
000003e0: d28f 48bd e576 643d 4826 aa3d 402c 833d
000003f0: 5b15 c73d d88e a2bd f337 793d d08a be3d

bias f4 [50]
-0.07980866 -0.04458469 0.049026404 -0.04889245 -0.030020356 -0.034032375 -0.024308875 0.046236213
0.0851338 -0.07456911 0.018224603 -0.018626723 -0.055211578 0.039487798 0.0045454414 -0.050028767
0.06813708 0.03471953 -0.02175862 -0.0974715 -0.03372854 -0.019012302 0.019971425 0.008386518
-0.08675993 0.039330453 0.030364035 0.07457398 0.017084632 -0.0022133624 -0.02200395 -0.08634709
-0.02895322 -0.010771783 0.029695442 0.09198759 0.008605641 -0.045783296 0.065441675 -0.080596395
0.05922271 0.054849777 -0.013989303 0.07359992 -0.059096437 -0.08644173 -0.06947819 -0.05861505
0.02925818 0.024432886
00000000: b972 a3bd 709e 36bd e9cf 483d 7343 48bd
00000010: 40ed f5bc 8865 0bbd 6823 c7bc 2f62 3d3d
00000020: a15a ae3d b1b7 98bd c34b 953c 1297 98bc
00000030: 8925 62bd f5bd 213d edf1 943b f7ea 4cbd
00000040: 748b 8b3d 1136 0e3d 223f b2bc 239f c7bd
00000050: f026 0abd b0bf 9bbc 1d9b a33c 9b67 093c
00000060: 31af b1bd f818 213d ffbd f83c 3eba 983d
00000070: 12f5 8b3c 0f0e 11bb a141 b4bc bed6 b0bd
00000080: 4e2f edbc 227c 30bc db43 f33c fd63 bc3d
00000090: adfe 0c3c 4487 3bbd 4906 863d b90f a5bd
000000a0: 8393 723d 29aa 603d 6433 65bc 8ebb 963d
000000b0: 1b0f 72bd 5d08 b1bd 954a 8ebd 5616 70bd
000000c0: daae ef3c 7a27 c83c

weight f4 [50, 50]
-0.01202217 0.007256929 -0.06866603 0.10992978 -0.11533855 0.06285321 -0.056882855 0.060520366
-0.079119734 -0.0927783 0.088853925 0.033737846 -0.11293683 0.08125533 -0.032061107 0.1069171
0.13859278 -0.06262267 0.07611495 0.041829534 -0.13703099 -0.0038292436 -0.023423988 -0.01586898
-0.06615 -0.10220505 -0.1329575 -0.103102155 0.11023401 0.13747233 -0.04511972 -0.13391152
0.009550695 0.039777692 0.121618986 -0.10369846 -0.0629064 0.05528104 0.09564685 -0.105374575
0.006104651 0.027875068 0.13609529 -0.0949669 0.08918026 0.07209135 -0.05163173 -0.027949026
0.13850695 -0.017812034 -0.12821998 -0.008627005 0.13358527 0.12710343 -0.08169319 -0.021972992
0.1334808 0.031158341 -0.026362114 0.044232696 0.059688453 0.052935854 -0.12551011 -0.119670235
-0.06812868 0.08708687 0.07897323 0.11359922 -0.036939926 0.05076885 -0.13070583 0.061137497
0.10480509 0.04132603 0.09153694 0.017440164 0.014144955 0.048813976 0.079405375 0.11628291
-0.088269934 -0.05605334 -0.06866068 -0.09857816 0.04856049 -0.13253653 0.06258433 0.112412326
-0.0823287 -0.13242112 3.010971e-05 0.029535249 0.09301427 0.027762197 0.12044599 -0.11107984
-0.115696795 0.072267905 0.02638639 -0.03885781 -0.028890925 -0.028955443 0.042105228 0.1356608
0.073090374 -0.11721304 -0.074786216 -0.03405179 0.048931178 0.09352145 0.057742283 0.03479612
-0.014308097 0.074595004 -0.03618656 0.08776451 -0.128837 0.13768986 -0.009583452 -0.0360582
0.07352317 0.11807069 0.018084202 -0.065358 -0.04965587 -0.016388534 -0.0005059139 -0.07320228
0.04857866 0.048155256 -0.09421461 -0.11380061 0.009103416 0.057327203 0.076910704 -0.1365491
0.040258434 -0.07971446 -0.056180555 0.13087647 -0.083518654 -0.08575918 0.05003529 -0.04206254
0.13041389 -0.070783176 -0.024425045 -0.043230444 -0.025286946 -0.06549096 0.04140247 -0.051900085
-0.098379485 0.096253715 0.023811672 -0.0941239 -0.07673008 0.091306366 0.09593692 0.015938185
-0.12638888 -0.12157632 0.0027683906 0.06690399 -0.039296053 0.12492593 0.015252608 -0.068279214
-0.011925991 0.018351717 0.0864364 0.12595035 0.091808684 0.12884192 0.057137255 0.008656559
-0.09823215 0.1105985 -0.093013376 0.02746948 -0.00060603797 0.057246365 0.003844366 0.07591326
0.13661468 -0.11162094 -0.09911481 -0.12871161 0.029724488 0.121440805 0.00077010726 0.13867453
-0.10922879 0.08333596 -0.10596177 0.047288697 0.073255055 0.064023964 -0.025105007 0.013227992
0.13043407 0.12830998 -0.11038697 -0.02890495 -0.08299801 0.12781042 -0.015575065 0.0716092
0.041467898 -0.13617781 -0.12756698 0.070484474 -0.09336895 -0.123944916 -0.025998756 -0.005607723
0.07274206 0.004999274 -0.08120464 0.14104031 0.02994183 -0.1079526 0.0059063924 -0.01965638
0.014687908 -0.015836157 0.08769479 -0.059345074 -0.08013691 -0.043623593 0.11707031 -0.07733608
-0.1187911 -0.043989222 -0.116478264 0.09007094 0.06702251 -0.031698074 0.1327862 0.04278389
-0.009331987 -0.11162373 0.0426908 0.044007517 0.09671355 -0.025308104 -0.024548955 0.005767881
-0.03359549 -0.026844509 -0.019561196 0.02203144 -0.14046416 -0.10815934 0.07073216 0.007894561
00000000: a3f8 44bc 88cb ed3b c7a0 8cbd dd22 e13d
00000010: 9e36 ecbd 2fb9 803d fffd 68bd 34e4 773d
00000020: 8709 a2bd 8d02 bebd 0cf9 b53d b230 0a3d
00000030: 6d4b e7bd 3269 a63d 8252 03bd 5af7 da3d
00000040: 44eb 0d3e 5040 80bd 28e2 9b3d 7255 2b3d
00000050: da51 0cbe 0cf4 7abb aae3 bfbc aaff 81bc
00000060: a779 87bd e250 d1bd 0326 08be 3927 d3bd
00000070: 5ec2 e13d 8cc5 0c3e 75cf 38bd 1a20 09be
00000080: 857a 1c3c efed 223d 6013 f93d dc5f d4bd
00000090: 12d5 80bd 5f6e 623d 7fe2 c33d a0ce d7bd
000000a0: 8609 c83b 415a e43c 905c 0b3e 027e c2bd
000000b0: 24a4 b63d a1a4 933d cb7b 53bd 5bf5 e4bc
000000c0: c4d4 0d3e 8bea 91bc 194c 03be 4858 0dbc
000000d0: 94ca 083e 6727 023e c24e a7bd b400 b4bc
000000e0: 31af 083e c73f ff3c 5cf5 d7bc 582d 353d
000000f0: e17b 743d 44d3 583d b985 00be ab15 f5bd
00000100: 0d87 8bbd 9a5a b23d b8bc a13d b5a6 e83d
00000110: 524e 17bd fff2 4f3d c0d7 05be 506b 7a3d
00000120: 0da4 d63d 7c45 293d b877 bb3d adde 8e3c
00000130: 3ec0 673c 2af1 473d 499f a23d bc25 ee3d
00000140: dec6 b4bd 3098 65bd f89d 8cbd 59e3 c9bd
00000150: 5de7 463d a8b7 07be 372c 803d 6f38 e63d
00000160: f39b a8bd 6799 07be 1c94 fc37 e8f3 f13c
00000170: 447e be3d 8c6d e33c 63ac f63d d47d e3bd
00000180: 71f2 ecbd 3201 943d 4528 d83c 5e29 1fbd
00000190: a9ac ecbc f733 edbc 8876 2c3d aaea 0a3e
000001a0: 68b0 953d 640d f0bd 8429 99bd e479 0bbd
000001b0: 0f6c 483d 2d88 bf3d 2c83 6c3d 6086 0e3d
000001c0: 826c 6abc 44c5 983d 5c38 14bd e1bd b33d
000001d0: d9ed 03be 92fe 0c3e e903 1dbc c3b1 13bd
000001e0: 5193 963d 0ccf f13d 5225 943c 6ada 85bd
000001f0: f463 4bbd 3f41 86bc 4f9f 04ba 14eb 95bd
00000200: 6bfa 463d 723e 453d 97f3 c0bd 4b10 e9bd
00000210: 7f26 153c eecf 6a3d 5c83 9d3d 87d3 0bbe
00000220: 07e6 243d 5641 a3bd 951d 66bd 7b04 063e
00000230: d40b abbd 82a2 afbd cef1 4c3d c549 2cbd
00000240: 388b 053e c5f6 90bd 0817 c8bc 6812 31bd
00000250: 9226 cfbc 2020 86bd a395 293d 2f95 54bd
00000260: 2f7b c9bd ab20 c53d b210 c33c 08c4 c0bd
00000270: a924 9dbd d5fe ba3d 937a c43d cc90 823c
00000280: 166c 01be 01fd f8bd e36d 353b f604 893d
00000290: e6f4 20bd 2ad9 ff3d 13e6 793c f9d5 8bbd
000002a0: 3b65 43bc 5756 963c 9105 b13d 21f9 003e
000002b0: 3106 bc3d 23ef 033e c108 6a3d 3dd4 0d3c
000002c0: f02d c9bd 7781 e23d cc7d bebd ad07 e13c
000002d0: 85de 1eba 2a7b 6a3d c2f1 7b3b 6978 9b3d
000002e0: b8e4 0b3e 8599 e4bd b5fc cabd facc 03be
000002f0: c580 f33c f5b5 f83d 06e1 493a b200 0e3e
00000300: 58b3 dfbd 0bac aa3d 7c02 d9bd cbb1 413d
00000310: bf06 963d ff1e 833d 04a9 cdbc 38ba 583c
00000320: 8290 053e b163 033e 9012 e2bd 13ca ecbc
00000330: dcfa a9bd bce0 023e 8f2e 7fbc d8a7 923d
00000340: 3eda 293d 3272 0bbe eba0 02be 2a5a 903d
00000350: 3838 bfbd d5d6 fdbd 58fb d4bc fdc0 b7bb
00000360: caf9 943d f3d0 a33b 9e4e a6bd df6c 103e
00000370: 9248 f53c 4116 ddbd 698a c13b 6b06 a1bc
00000380: 8da5 703c d4ba 81bc 5399 b33d d213 73bd
00000390: d21e a4bd a7ae 32bd 8fc2 ef3d 6162 9ebd
000003a0: c048 f3bd 0b2e 34bd 288c eebd 1d77 b83d
000003b0: 1943 893d d7d5 01bd 1bf9 073e 293e 2f3d
000003c0: 31e5 18bc fb9a e4bd 8cdc 2e3d 3a41 343d
000003d0: c111 c63d f152 cfbc e41a c9bc 7e00 bd3b
000003e0: 6d9b 09bd 04e9 dbbc cd3e a0bc 477b b43c
000003f0: d6d5 0fbe a582 ddbd 06dc 903d 3058 013c

bias f4 [50]
-0.13180903 -0.095034674 0.011907817 -0.08836119 0.030472292 0.09407959 -0.10166041 0.13304521
0.08725807 -0.022804143 -0.06861076 -0.019431602 -0.06649158 0.0155421905 0.113104664 0.10610611
0.1258899 -0.027179543 0.07828904 -0.10384655 -0.06939958 0.12415466 -0.06800496 -0.066173606
-0.038042843 0.10842943 0.13893253 0.10655956 0.029680671 0.10032134 0.10568547 -0.05914061
0.08094257 0.09486725 0.06947539 -0.12558715 -0.0824516 -0.10003831 -0.040774398 0.1250303
0.09270817 0.028269948 0.047501978 0.08655995 0.12691884 -0.13017234 0.07722329 0.060941394
0.01369481 -0.10232409
00000000: f2f8 06be 8aa1 c2bd 0119 433c b6f6 b4bd
00000010: 07a1 f93c cdac c03d 5533 d0bd 013d 083e
00000020: 5cb4 b23d c1cf babc cc83 8cbd 062f 9fbc
00000030: bd2c 88bd aca4 7e3c 6ba3 e73d 294e d93d
00000040: 48e9 003e a2a7 debc 0156 a03d 80ad d4bd
00000050: 5e21 8ebd cc44 fe3d 2f46 8bbd 0786 87bd
00000060: d0d2 1bbd 4010 de3d 5444 0e3e e63b da3d
00000070: e124 f33c 4675 cd3d a071 d83d 6d3d 72bd
00000080: 38c5 a53d c349 c23d 1d49 8e3d eb99 00be
00000090: 62dc a8bd e3e0 ccbd 0e03 27bd f107 003e
000000a0: c8dd bd3d 6196 e73c 6f91 423d 5846 b13d
000000b0: 03f7 013e e64b 05be 3f27 9e3d af9d 793d
000000c0: 3260 603c 4b8f d1bd

weight f4 [50, 50]
-0.035131726 -0.07278373 -0.06573211 -0.060772166 0.018966572 0.1313188 -0.010928982 -0.09730019
-0.119202636 -0.122759685 -0.11793223 -0.07691168 -0.10379587 0.073846914 0.026017992 -0.010693465
-0.0074944347 -0.011398717 0.018329108 -0.1344297 0.048511058 -0.088732675 0.016352674 0.013211267
-0.13185199 0.034232277 -0.093073666 0.022366777 0.14057854 -0.021569712 0.068599515 0.049851447
0.12685029 0.03411678 0.14009388 0.10912991 0.10495547 -0.110722944 -0.0700334 -0.03977892
0.055628702 -0.09604064 0.07340161 -0.099115014 -0.10198865 -0.09855402 -0.07492559 0.12849848
-0.12496248 0.100042716 0.014536263 0.12371389 0.06565864 0.066531435 -0.124644436 0.11748099
0.080453314 -0.13917921 -0.016622415 -0.055173665 0.0059331134 0.11575204 0.11086144 0.098237954
-0.015513497 0.07148885 -0.09773583 0.004742667 0.011466304 0.14017746 0.12860776 0.065615766
-0.07248368 0.081678525 -0.042147018 -0.030945364 -0.014845048 0.012840257 0.052720856 -0.08335305
0.061325386 0.08523037 0.03929324 0.12721892 -0.006956759 0.054995082 0.1320931 0.05510522
0.12537575 -0.024690568 0.12652646 -0.018771483 0.0063040224 0.022036666 -0.11237042 -0.04924836
0.015066134 -0.087132834 -0.01878244 0.12225904 0.0078859115 -0.06264356 -0.00077705306 -0.070907846
0.13661271 -0.09180353 0.08832582 -0.042637236 -0.038193896 -0.13841768 0.09912272 -0.13508128
-0.11148221 0.06220983 0.1060715 -0.05327635 0.019361774 -0.0013000786 -0.078332804 0.029045131
-0.05626559 0.024956027 0.06527489 0.05219552 -0.046030615 0.022772854 -0.0365599 0.071609475
0.0052891094 -0.02261524 -9.4156065e-05 -0.026252093 -0.059153408 0.07013141 0.04283828 0.08634074
-0.052092932 0.1411783 0.043438043 0.08120068 -0.14060853 0.083949514 -0.07587954 -0.11511316
0.04780613 0.028893098 0.12287489 0.00018954281 -0.10713991 0.07346966 0.097335115 -0.005944122
0.010797112 -0.094715975 0.105314694 0.07653342 0.071504325 0.04929951 -0.04766608 0.13784282
0.047738034 -0.043406654 0.014115183 -0.071045935 0.12760219 0.04613096 0.011742214 0.026828494
-0.013422238 0.009192986 -0.023663687 -0.0027856876 -0.036430523 0.1331581 0.10981483 -0.084034026
-0.061156042 -0.06844446 -0.12935284 0.020364666 -0.13465674 0.057259515 0.017940667 0.13862857
-0.053951524 -0.10170187 -0.032346696 -0.12745708 -0.084924996 0.06490138 0.071362324 -0.12437269
0.113187 -0.12989284 -0.12034723 0.013730921 -0.085179664 -0.11596497 -0.06058883 -0.13288417
0.08050094 0.091399625 0.11263108 0.05428378 0.1150538 0.034519807 0.13613667 -0.049120467
0.038787983 -0.012564803 -0.11678626 0.050486583 -0.04535114 0.07745322 0.07669326 0.13908727
-0.09674036 0.10740204 -0.1321845 0.088486046 0.06543482 -0.10966606 0.040104803 -0.03804556
0.009412319 0.029154358 0.016070325 0.1380938 -0.07180488 -0.017040933 -0.014587481 0.10299323
-0.11755062 0.041931428 -0.069822155 -0.13506898 -0.022862306 -0.14140086 0.11051494 0.006535274
0.05037415 0.07002992 0.10250513 0.0777239 0.13112247 0.13827121 0.05900923 0.08748312
0.002784828 0.08946999 0.13336673 0.04580742 0.10908145 0.05931188 0.069066934 -0.11496619
00000000: 49e6 0fbd a30f 95bd 8e9e 86bd 3cec 78bd
00000010: c95f 9b3c 6f78 063e 790f 33bc 5245 c7bd
00000020: 8320 f4bd 6e69 fbbd 7486 f1bd df83 9dbd
00000030: ee92 d4bd 0d3d 973d af23 d53c a533 2fbc
00000040: e093 f5bb afc1 3abc ed26 963c f0a7 09be
00000050: 88b3 463d 7ab9 b5bd 0bf6 853c 1274 583c
00000060: 3504 07be 2537 0c3d 689d bebd 883a b73c
00000070: d2f3 0f3e f7b2 b0bc e77d 8c3d 0831 4c3d
00000080: 0be5 013e 09be 0b3d c574 0f3e 817f df3d
00000090: e5f2 d63d b6c2 e2bd ac6d 8fbd 39ef 22bd
000000a0: ecda 633d f4b0 c4bd 9553 963d d0fc cabd
000000b0: 6ddf d0bd b1d6 c9bd 9672 99bd 1b95 033e
000000c0: 54ec ffbd 32e3 cc3d 8229 6e3c b55d fd3d
000000d0: 0978 863d a241 883d 9545 ffbd e099 f03d
000000e0: b5c4 a43d ff84 0ebe bb2b 88bc c8fd 61bd
000000f0: 906a c23b 680f ed3d 530b e33d fb30 c93d
00000100: 532c 7ebc bf68 923d b929 c8bd 6068 9b3b
00000110: 2add 3b3c ae8a 0f3e c1b1 033e 8f61 863d
00000120: 5372 94bd 1247 a73d 5aa2 2cbd 2281 fdbc
00000130: a538 73bc f15f 523c d3f1 573d 01b5 aabd
00000140: 5430 7b3d 438d ae3d f3f1 203d ad45 023e
00000150: 86f5 e3bb 8642 613d 6a43 073e 03b6 613d
00000160: 8062 003e e043 cabc 2790 013e a7c6 99bc
00000170: f991 ce3b 3d86 b43c 7622 e6bd a6b8 49bd
00000180: f2d7 763c b372 b2bd a2dd 99bc f362 fa3d
00000190: e933 013c 444b 80bd 26b3 4bba 2238 91bd
000001a0: 34e4 0b3e 7d03 bcbd 2be4 b43d 62a4 2ebd
000001b0: 3471 1cbd 5dbd 0dbe da00 cb3d bf52 0abe
000001c0: c950 e4bd bccf 7e3d 043c d93d 4d38 5abd
000001d0: 959c 9e3c 6667 aaba f36c a0bd 0ef0 ed3c
000001e0: bf76 66bd 9570 cc3c d7ae 853d f8ca 553d
000001f0: 998a 3cbd 238e ba3c d5bf 15bd fda7 923d
00000200: 4450 ad3b 9943 b9bc a775 c5b8 a10e d7bc
00000210: d84a 72bd 0fa1 8f3d 3177 2f3d 6ad3 b03d
00000220: 665f 55bd 0b91 103e 17ec 313d 8b4c a63d
00000230: affb 0fbe b9ed ab3d bb66 9bbd 73c0 ebbd
00000240: 5cd0 433d 38b1 ec3c d5a5 fb3d 03c0 4639
00000250: 2b6c dbbd 4377 963d a257 c73d e9c6 c2bb
00000260: 5fe6 303c 73fa c1bd 3baf d73d 8ebd 9c3d
00000270: dc70 923d 48ee 493d 823d 43bd ab26 0d3e
00000280: f588 433d 2dcb 31bd 5e43 673c 8880 91bd
00000290: 26aa 023e d1f3 3c3d 6a62 403c 6ec7 db3c
000002a0: f2e8 5bbc 2e9e 163c 59da c1bc 1590 36bb
000002b0: 2c38 15bd 995a 083e 99e6 e03d 081a acbd
000002c0: c27e 7abd 9c2c 8cbd 1275 04be cdd3 a63c
000002d0: 75e3 09be f488 6a3d 4ef8 923c a6f4 0d3e
000002e0: 46fc 5cbd 1249 d0bd f87d 04bd 1c84 02be
000002f0: 28ed adbd 04eb 843d 6926 923d 1cb7 febd
00000300: 96ce e73d a102 05be 9c78 f6bd a8f7 603c
00000310: ad72 aebd 0b7f edbd fe2b 78bd ca12 08be
00000320: addd a43d ba2f bb3d 20ab e63d ab58 5e3d
00000330: 54a1 eb3d a464 0d3d 6967 0b3e 8b32 49bd
00000340: 26e0 1e3d 9adc 4dbc a22d efbd 05cb 4e3d
00000350: 1ec2 39bd cb9f 9e3d 5b11 9d3d e56c 0e3e
00000360: cf1f c6bd 9af5 db3d 605b 07be 2c38 b53d
00000370: b102 863d 9998 e0bd ef44 243d a9d5 1bbd
00000380: 2136 1a3c 1fd5 ee3c eaa5 833c 7668 0d3e
00000390: 700e 93bd 6d99 8bbc 5400 6fbc 1dee d23d
000003a0: 61be f0bd 4ac0 2b3d ebfe 8ebd 864f 0abe
000003b0: bb49 bbbc 63cb 10be a855 e23d da25 d63b
000003c0: 2055 4e3d d96b 8f3d 36ee d13d b52d 9f3d
000003d0: f844 063e f896 0d3e aab3 713d 5a2a b33d
000003e0: a981 363b 0b3c b73d 4a91 083e 90a0 3b3d
000003f0: 1866 df3d 04f1 723d f772 8d3d 6573 ebbd

bias f4 [50]
0.11703258 0.11734428 0.043343384 0.10933994 0.13614208 0.105281666 -0.037449703 -0.06605067
-0.10210855 0.10784329 0.11754827 -0.06403713 0.0675261 0.028790226 0.051967505 -0.07774022
0.11761524 0.047986515 -0.09873355 -0.060347144 0.124833815 -0.031689998 0.08400732 -0.08876501
-0.06443771 0.0653771 0.1409213 -0.061159953 0.07506693 0.027950123 -0.13908155 -0.084147856
-0.12805806 0.13896793 0.13522626 0.13051149 -0.014128838 -0.051663186 -0.12301796 -0.064520776
-0.10967659 -0.05611108 0.10354736 -0.103920795 0.11786028 -0.123746626 0.095540605 -0.023587333
0.13384393 -0.13827033
00000000: c7ae ef3d 3352 f03d d588 313d 9eed df3d
00000010: d468 0b3e ea9d d73d dc64 19bd 9345 87bd
00000020: 4a1e d1bd f1dc dc3d 26bd f03d e625 83bd
00000030: 204b 8a3d 7bd9 eb3c e1db 543d 4436 9fbd
00000040: 42e0 f03d 828d 443d d134 cabd 912e 77bd
00000050: dfa8 ff3d 5fcd 01bd 080c ac3d 6eca b5bd
00000060: ebf7 83bd 6ee4 853d ac4d 103e dc82 7abd
00000070: b1bc 993d a8f7 e43c 656b 0ebe b655 acbd
00000080: a721 03be 9c4d 0e3e c178 0a3e cea4 053e
00000090: a47c 67bc c79c 53bd d7f0 fbbd 7823 84bd
000000a0: 1f9e e0bd bbd4 65bd a310 d43d 6dd4 d4bd
000000b0: bb60 f13d df6e fdbd cbaa c33d 393a c1bc
000000c0: 620e 093e bd96 0dbe

weight f4 [50, 50]
-0.086273305 0.08085118 -0.12889858 0.018280808 -0.11440361 -0.017619861 0.01512637 0.09140451
0.026366547 0.07849734 -0.113939136 -0.1395275 -0.0068343985 0.07889617 -0.045458816 -0.083028115
-0.01717572 -0.1371578 -0.02705258 -0.09240124 0.09665387 0.08988512 -0.10584806 -0.043851405
0.04500596 -0.023510406 0.04868396 -0.047010902 -0.1161888 -0.13041236 0.10278781 -0.13572775
-0.11469541 -0.07071176 0.03291077 0.13679421 -0.059939496 0.09514808 -0.13108031 -0.05673546
-0.11816787 -0.047830775 0.037617058 0.052256312 -0.12572935 0.11648331 -0.1045058 0.095946394
0.0061617517 -0.09489911 -0.10344887 -0.062300935 0.1214884 -0.006321876 -0.069971934 0.12110456
-0.0026826302 0.06127046 0.12377994 0.11788621 0.0065212306 -0.020065593 -0.023666805 -0.094435886
0.12381303 0.09112525 -0.1371583 -0.060473364 -0.08689168 -0.12405182 -0.13089506 -0.062466826
-0.025829393 0.035758533 -0.01018278 0.036727812 0.09343008 -0.12284659 -0.06485426 -0.086662576
-0.020889143 0.01376216 0.017026266 0.046172854 -0.11750124 0.034231488 0.005700564 0.13389495
0.04227098 0.14141908 0.011971459 -0.032501847 -0.035546064 -0.08180601 0.085413545 0.09121477
0.09072189 0.11827246 0.07237039 -0.045440864 -0.101412825 0.1015658 0.00034310907 -0.010742423
0.0799243 0.13966951 0.039405182 0.013347132 -0.037298597 0.09111522 -0.0048872307 0.122451216
-0.122235104 -0.003910739 0.13415039 0.05364441 0.07032782 -0.10961678 -0.13335332 0.1108915
0.011222864 -0.06364282 -0.10447707 0.10674735 0.027685136 -0.09531773 0.13985886 -0.026852213
0.11989022 0.07488786 -0.12773737 -0.084122516 -0.104203045 0.1286334 0.1273141 -0.037308324
0.037760813 0.08931828 0.11758285 -0.016382262 -0.13836801 0.1180363 -0.058279164 0.083143376
0.064486906 0.02883696 0.12965877 -0.11992608 -0.12520346 -0.04729573 -0.039320666 -0.03492588
0.112572774 0.00092471874 0.032042228 -0.13803793 0.12766883 0.03598987 0.12527815 -0.11176927
-0.10227921 0.005353729 -0.02092473 0.008566482 0.045651074 -0.13202736 0.033483904 -0.022930669
-0.0855414 0.13457726 0.018883863 0.09612376 -0.088363655 -0.07443827 0.10116003 0.099974856
0.06876955 0.10707226 0.1131227 -0.09902763 0.045869816 0.0057763774 0.00846157 0.02632349
0.08628205 -0.011664984 -0.0026569543 -0.10923624 -0.089992106 -0.12111419 -0.0030554275 -0.101790614
0.00037062255 -0.06331617 -0.045953587 0.1295086 -0.12044941 -0.05867639 0.010498309 -0.042213947
0.052353706 0.13363963 0.071654245 0.07073693 -0.012487673 -0.025017628 0.038717967 0.07512605
0.09027823 0.052730076 0.07453379 0.03146824 -0.0024892436 -0.027582603 -0.10847824 -0.13955663
-0.1354493 0.10974623 0.035409253 0.12832573 -0.10620723 0.11877675 -0.13785213 -0.025758233
0.06324968 -0.13076 0.09380583 -0.12944178 0.09303181 0.1165577 0.10779445 0.0031367035
0.08226538 0.06311949 0.11240545 -0.1335209 -0.1350881 -0.093940966 0.12500226 0.04667531
-0.011168595 -0.03242745 0.09161702 0.09863494 -0.10698713 -0.021474747 0.09216061 -0.09765417
0.09502768 0.022975614 -0.021457417 -0.09531443 0.06872602 -0.10567541 0.13368285 0.08756354
00000000: 0fb0 b0bd 4e95 a53d fdfd 03be a2c1 953c
00000010: 714c eabd 8757 90bc 98d4 773c 4a32 bb3d
00000020: a8fe d73c 37c3 a03d ec58 e9bd 4ce0 0ebe
00000030: 17f3 dfbb 5194 a13d 0633 3abd a50a aabd
00000040: 18b4 8cbc 1873 0cbe 5f9d ddbc dc3c bdbd
00000050: 77f2 c53d b115 b83d dec6 d8bd 889d 33bd
00000060: 2b58 383d e598 c0bc d568 473d 818e 40bd
00000070: 65f4 edbd d18a 05be 6a82 d23d 37fc 0abe
00000080: 6de5 eabd 54d1 90bd 72cd 063d c813 0c3e
00000090: 1e83 75bd ffdc c23d eb39 06be 7163 68bd
000000a0: ff01 f2bd 34ea 43bd 5814 1a3d b70a 563d
000000b0: 32bf 00be cd8e ee3d 2307 d6bd 8b7f c43d
000000c0: 85e8 c93b 775a c2bd 00dd d3bd 442f 7fbd
000000d0: e9ce f83d bd27 cfbb 724d 8fbd ab05 f83d
000000e0: 11cf 2fbb bcf6 7a3d 5680 fd3d 536e f13d
000000f0: 0cb0 d53b 9960 a4bc e3e0 c1bc 9a67 c1bd
00000100: b091 fd3d e09f ba3d 3a73 0cbe ebb2 77bd
00000110: 44f4 b1bd e10e febd 5b09 06be 37dd 7fbd
00000120: 2a98 d3bc 8a77 123d add5 26bc e76f 163d
00000130: 4558 bf3d fe96 fbbd 4fd2 84bd 267c b1bd
00000140: b51f abbc af7a 613c ab7a 8b3c bf1f 3d3d
00000150: 7da4 f0bd 5136 0c3d cccb ba3b c21b 093e
00000160: 5624 2d3d 2ad0 103e f023 443c a820 05bd
00000170: c098 11bd e989 a7bd 4ced ae3d cfce ba3d
00000180: 66cc b93d d538 f23d ed36 943d 3320 3abd
00000190: 87b1 cfbd bb01 d03d 52e3 b339 fd00 30bc
000001a0: 5aaf a33d 8605 0f3e 5467 213d eead 5a3c
000001b0: 6ac6 18bd 9e9a ba3d 1025 a0bb b4c7 fa3d
000001c0: 6656 fabd a825 80bb b85e 093e 3eba 5b3d
000001d0: 0808 903d c37e e0bd c68d 08be 151b e33d
000001e0: 1ae0 373c 2b57 82bd 13f8 d5bd 5b9e da3d
000001f0: f0cb e23c f135 c3bd 2937 0f3e 2cf9 dbbc
00000200: 0189 f53d ce5e 993d 96cd 02be 6d48 acbd
00000210: 6868 d5bd 79b8 033e a15e 023e 9dd0 18bd
00000220: 15ab 1a3d 81ec b63d 47cf f03d 1834 86bc
00000230: 58b0 0dbe 04bd f13d 22b6 6ebd 1347 aa3d
00000240: b611 843d 7d3b ec3c 45c5 043e ce9b f5bd
00000250: 5635 00be 2bb9 41bd b50e 21bd 710e 0fbd
00000260: 8e8c e63d d368 723a b63e 033d d159 0dbe
00000270: 9ebb 023e 1d6a 133d ea48 003e 49e7 e4bd
00000280: c377 d1bd 556e af3b 576a abbc 6e5a 0c3c
00000290: 9ffc 3a3d 2e32 07be 6b26 093d 19d9 bbbc
000002a0: 5430 afbd 9fce 093e 55b2 9a3c 89dc c43d
000002b0: 01f8 b4bd 1773 98bd fd2c cf3d 9ebf cc3d
000002c0: 0dd7 8c3d b348 db3d e0ac e73d 00cf cabd
000002d0: fde1 3b3d c447 bd3b 66a2 0a3c 5ca4 d73c
000002e0: a5b4 b03d 7d1e 3fbc 4c20 2ebb 40b7 dfbd
000002f0: c84d b8bd b70a f8bd 913d 48bb 9977 d0bd
00000300: 1e50 c239 e8ab 81bd d439 3cbd e79d 043e
00000310: 2eae f6bd a856 70bd 1901 2c3c 88e8 2cbd
00000320: d770 563d d4d8 083e 76bf 923d 86de 903d
00000330: 1999 4cbc c5f1 ccbc bb96 1e3d b0db 993d
00000340: cbe3 b83d 7efb 573d 2ca5 983d d7e4 003d
00000350: 9422 23bb e9f4 e1bc d729 debd efe7 0ebe
00000360: 39b3 0abe a2c2 e03d 4b09 113d d267 033e
00000370: 2d83 d9bd 3a41 f33d 1c29 0dbe ee02 d3bc
00000380: 0c89 813d f3e5 05be 451d c03d 638c 04be
00000390: 7687 be3d ceb5 ee3d 56c3 dc3d 2791 4d3b
000003a0: c07a a83d cb44 813d d434 e63d b4b9 08be
000003b0: 8954 0abe 1f64 c0bd 9800 003e 9c2e 3f3d
000003c0: 7cfc 36bc a5d2 04bd b4a1 bb3d 1e01 ca3d
000003d0: 121c dbbd cfeb afbc b4be bc3d e9fe c7bd
000003e0: df9d c23d 5b37 bc3c 77c7 afbc 3634 c3bd
000003f0: 3ac0 8c3d 596c d8bd 28e4 083e 8354 b33d

bias f4 [50]
0.01279688 -0.09463583 -0.02550719 -0.13113113 0.07722807 0.047563564 -0.047806364 -0.07926241
-0.12556763 0.12536594 0.07938032 0.09760516 0.074397825 -0.03153267 -0.0065640346 0.056541197
0.051218085 0.05573685 -0.042034823 0.11701274 0.005429762 -0.028401194 0.07338723 0.040169153
-0.040799838 0.049500667 0.09186496 0.100128725 -0.13800345 -0.105346695 0.10712725 -0.03474534
0.10057666 0.008397845 -0.09393636 -0.040881213 0.11834178 0.003188443 -0.10831417 0.09039596
0.07010144 0.10338601 0.07718396 -0.098115474 -0.06930514 -0.03127831 0.12420523 0.11859399
-0.023121728 -0.12623258
00000000: 01aa 513c 6ed0 c1bd 74f4 d0bc 3d47 06be
00000010: c029 9e3d 03d2 423d 9bd0 43bd 5554 a2bd
00000020: cd94 00be ee5f 003e 2692 a23d 37e5 c73d
00000030: e35d 983d 6728 01bd 1d17 d7bb be97 673d
00000040: 0eca 513d 534c 643d b52c 2cbd 60a4 ef3d
00000050: 25ec b13b 9fa9 e8bc 0b4c 963d 6988 243d
00000060: bb1d 27bd 36c1 4a3d b223 bc3d 4a10 cd3d
00000070: c750 0dbe 02c0 d7bd 8865 db3d 2151 0ebd
00000080: 23fb cd3d 1d97 093c b561 c0bd 0f73 27bd
00000090: 2d5d f23d 32f5 503b d2d3 ddbd 8421 b93d
000000a0: 5891 8f3d 0bbc d33d a012 9e3d c4f0 c8bd
000000b0: daef 8dbd af1d 00bd 505f fe3d 68e1 f23d
000000c0: c769 bdbc 1d43 01be

weight f4 [50, 50]
0.060173377 -0.0071762432 0.11044233 0.0992089 0.06987403 0.020842932 0.002627266 -0.03962758
0.02494507 0.13734172 -0.032187566 0.12568101 0.010760732 -0.108692765 -0.092867196 0.10750037
-0.08333392 0.10960155 -0.09862548 0.05380752 0.05253148 -0.0008581436 0.06605051 0.11040175
-0.042563125 -0.1150991 -0.016412742 0.03079999 0.08562321 0.07259756 -0.0037973807 0.0654273
-0.08307798 0.09656203 0.047286306 -0.082928345 0.11565463 -0.041407257 0.025806988 0.04470039
-0.06889874 -0.059135165 -0.04996887 -0.025634423 -0.014724104 -0.08265293 -0.08514573 -0.10501626
0.059470505 -0.058071904 0.119425714 0.11704964 -0.048104543 -0.10841986 -0.054338552 0.095050305
0.1111738 0.086696275 0.136055 -0.0222122 -0.12193236 -0.08067408 0.025217624 0.07195317
-0.10504671 -0.09319987 0.08181147 0.11342493 0.062291984 0.020250803 0.053519756 -0.0038899856
-0.055438027 -0.058033247 -0.1320013 0.08547049 -0.13103646 0.06484052 -0.046463765 -0.06662656
-0.050922398 -0.14133368 0.12831925 0.048985362 0.01899658 0.13610472 -0.086317524 -0.015163544
-0.06488811 0.10993212 -0.13539383 -0.08575636 -0.13331862 -0.03391164 0.13714443 0.020728007
-0.10082378 0.12429772 0.109299935 0.11247115 -0.13101895 0.13782427 -0.1370244 0.04995093
0.07633997 -0.1395471 -0.07665226 0.02284811 -0.0021834935 0.050256174 0.082102045 -0.024239194
0.016299114 0.010730369 -0.13824749 -0.06055184 -0.0642375 -0.14051013 -0.037108127 0.05431537
-0.09428116 0.015231467 -0.026475066 -0.09113056 -0.102605954 0.10114351 0.026181456 -0.13915868
0.027819702 0.06866939 -0.11426237 0.08187031 -0.10088813 -0.0879758 0.10199793 -0.010413779
0.031240696 0.113635 0.09703687 -0.042925995 -0.060252614 0.053993706 -0.0049104453 0.09534319
-0.03809799 -0.13222902 0.074782655 0.03488412 0.060035523 0.08991872 0.08315108 0.055308063
-0.10312874 0.08019111 0.11326509 -0.030359674 -0.102773 -0.0024173579 -0.0074659605 -0.11079309
-0.13638279 -0.092088506 -0.06958106 0.1338107 -0.10049718 -0.072838776 0.014430947 -0.11715961
0.13812596 -0.1309496 0.03280045 -0.10061704 -0.100833505 0.017458102 -0.019112922 -0.11820642
0.095779575 0.12444515 -0.032678526 -0.007031814 -0.08610339 -0.041242227 0.0041609225 -0.0717022
-0.12896362 -0.054525264 -0.12587811 0.031493746 0.097871125 0.07691008 0.13068813 0.049423218
-0.0037666808 0.04040998 0.11401916 -0.016192045 -0.09841017 0.084531225 0.013418731 0.053240694
-0.13188122 -0.11317992 -0.012338592 -0.10405887 0.01434989 0.0066321273 0.085112646 -0.102806404
-0.119001515 0.03607703 0.03640488 -0.119950324 -0.051974654 0.07919685 -0.13908027 -0.00080434734
-0.12977542 0.094228424 0.01786787 -0.12661406 -0.12503515 -0.07323265 -0.08952829 0.0010340982
-0.04666862 0.13277431 -0.03573962 0.08848531 -0.110429466 0.038311064 0.067959994 0.08611917
0.029158928 -0.11133902 0.12284947 0.1080555 -0.070846684 -0.00685677 0.06847562 -0.09171011
-0.10777995 -0.10888705 -0.012121232 0.024110915 -0.027659899 0.0400709 0.018271165 -0.033133697
-2.6771679e-05 0.0027815404 -0.031356633 -0.0058793677 -0.034280494 -0.067727424 -0.03316568 -0.027832786
00000000: 5c78 763d b126 ebbb 972f e23d 092e cb3d
00000010: 1e1a 8f3d ccbe aa3c 362e 2c3b 8850 22bd
00000020: 9a59 cc3c 4fa3 0c3e 1cd7 03bd 86b2 003e
00000030: c84d 303c 509a debd 2831 bebd 2729 dc3d
00000040: f9aa aabd c776 e03d 28fc c9bd 4665 5c3d
00000050: 402b 573d 0bf5 60ba 7d45 873d 501a e23d
00000060: ac56 2ebd 14b9 ebbd 0474 86bc 4350 fc3c
00000070: 395b af3d 08ae 943d 7add 78bb c0fe 853d
00000080: ca24 aabd 50c2 c53d 49af 413d 56d6 a9bd
00000090: 56dc ec3d a89a 29bd 2d69 d33c c217 373d
000000a0: c81a 8dbd b737 72bd 28ac 4cbd 48ff d1bc
000000b0: 5e3d 71bc f045 a9bd e260 aebd c412 d7bd
000000c0: 5897 733d cedc 6dbd 7895 f43d b9b7 ef3d
000000d0: 4509 45bd 3b0b debd 1a92 5ebd bca9 c23d
000000e0: 17af e33d d18d b13d 0052 0b3e 5cf6 b5bc
000000f0: acb7 f9bd 7438 a5bd 3195 ce3c 2f5c 933d
00000100: bb22 d7bd 93df bebd c68c a73d 544b e83d
00000110: e125 7f3d 03e5 a53c 8837 5b3d 21ef 7ebb
00000120: fc12 63bd 45b4 6dbd 592b 07be 270b af3d
00000130: 6c2e 06be 1bcb 843d ca50 3ebd 8273 88bd
00000140: 0194 50bd c7b9 10be 1f66 033e e0a4 483d
00000150: b79e 9b3c 095f 0b3e 3ec7 b0bd 8370 78bc
00000160: 0fe4 84bd 1724 e13d aea4 0abe 08a1 afbd
00000170: ad84 08be efe6 0abd 976f 0c3e c8cd a93c
00000180: b37c cebd ce8f fe3d a5d8 df3d 4657 e63d
00000190: d529 06be ce21 0d3e 2050 0cbe 5999 4c3d
000001a0: 2158 9c3d 6fe5 0ebe dcfb 9cbd f62b bb3c
000001b0: f118 0fbb 6bd9 4d3d 1e25 a83d 4691 c6bc
000001c0: b885 853c 6ece 2f3c c090 0dbe 3505 78bd
000001d0: f38e 83bd e3e1 0fbe b1fe 17bd cb79 5e3d
000001e0: 7b16 c1bd 678d 793c 3de2 d8bc a9a2 babd
000001f0: 1223 d2bd 5424 cf3d 7e7a d63c 9d7f 0ebe
00000200: 25e6 e33c 8aa2 8c3d 6402 eabd 9fab a73d
00000210: 709e cebd a82c b4bd 4ae4 d03d 8e9e 2abc
00000220: 7dec ff3c 78b9 e83d 44bb c63d 2bd3 2fbd
00000230: 72cb 76bd 8128 5d3d cde7 a0bb 4a43 c33d
00000240: a30c 1cbd 0b67 07be a627 993d a7e2 0e3d
00000250: cfe7 753d 4e27 b83d 1d4b aa3d b58a 623d
00000260: 2935 d3bd 3d3b a43d 87f7 e73d dab4 f8bc
00000270: a77a d2bd 896c 1ebb 04a5 f4bb 7de7 e2bd
00000280: eea7 0bbe e698 bcbd 8480 8ebd ac05 093e
00000290: 77d1 cdbd 7f2c 95bd c76f 6c3c 61f1 efbd
000002a0: e470 0d3e a717 06be c459 063d 4f10 cebd
000002b0: cc81 cebd 4b04 8f3c b492 9cbc 3516 f2bd
000002c0: 1528 c43d 19dd fe3d ebd9 05bd 226b e6bb
000002d0: f956 b0bd 9ced 28bd 5958 883b 9ad8 92bd
000002e0: 0a0f 04be e255 5fbd 31e6 00be 96ff 003d
000002f0: a870 c83d 0883 9d3d 1cd3 053e 0070 4a3d
00000300: 6bda 76bb ef84 253d e182 e93d 2ea5 84bc
00000310: 458b c9bd b51e ad3d 3dda 5b3c ea12 5a3d
00000320: df0b 07be e0ca e7bd ce27 4abc d11c d5bd
00000330: cd1b 6b3c 5152 d93b 8a4f ae3d 2a8c d2bd
00000340: 11b7 f3bd 82c5 133d 491d 153d 84a8 f5bd
00000350: 60e3 54bd f531 a23d 0f6b 0ebe d6da 52ba
00000360: d9e3 04be d5fa c03d a45f 923c 1ea7 01be
00000370: 3709 00be 00fb 95bd 9c5a b7bd 948a 873a
00000380: 9827 3fbd fdf5 073e b563 12bd c937 b53d
00000390: d828 e2bd 10ec 1c3d 9c2e 8b3d 3f5f b03d
000003a0: b4de ee3c b605 e4bd 8198 fb3d 344c dd3d
000003b0: 1118 91bd c1ae e0bb f23c 8c3d 83d2 bbbd
000003c0: bcbb dcbd 2c00 dfbd 2298 46bc 4184 c53c
000003d0: 0397 e2bc 6221 243d 69ad 953c 33b7 07bd
000003e0: be93 e0b7 814a 363b d06f 00bd b6a7 c0bb
000003f0: b469 0cbd adb4 8abd bcd8 07bd 9501 e4bc

bias f4 [50]
0.11628763 0.0937961 -0.09181049 0.12777635 0.001820373 -0.017279012 -0.13531312 0.12509248
-0.0615767 0.10825053 0.11357539 0.051459584 0.001188794 0.045652643 -0.015848598 -0.098333225
-0.060994364 0.12055815 0.11631998 -0.11332374 0.10598719 -0.12788557 -0.030193144 -0.0653098
-0.038031783 0.014866678 0.07406579 0.07098866 0.035899743 0.06921243 0.044536393 0.06377386
0.048121992 -0.07901207 0.047641486 -0.107741594 0.1407949 0.111322574 0.01689954 0.009589656
0.06034151 -0.13321263 -0.09713458 -0.11952993 -0.056910843 -0.047878012 0.091988064 -0.14009726
-0.12436885 -0.08882496
00000000: 3528 ee3d 2b18 c03d 2307 bcbd ced7 023e
00000010: 9599 ee3a b78c 8dbc 868f 0abe 3e18 003e
00000020: da37 7cbd 74b2 dd3d 379a e83d 49c7 523d
00000030: 4fd1 9b3a 44fe 3a3d ebd4 81bc ee62 c9bd
00000040: 3ad5 79bd 31e7 f63d 2b39 ee3d 4716 e8bd
00000050: d00f d93d 6ff4 02be 9d57 f7bc 25c1 85bd
00000060: 37c7 1bbd 5e93 733c ceaf 973d 8162 913d
00000070: 9c0b 133d 3fbf 8d3d cb6b 363d df9b 823d
00000080: 911b 453d 15d1 a1bd b823 433d a0a7 dcbd
00000090: 8a2c 103e 17fd e33d e770 8a3c ef1d 1d3c
000000a0: a928 773d e468 08be 7fee c6bd 1ccc f4bd
000000b0: 581b 69bd bc1b 44bd 3d64 bc3d a875 0fbe
000000c0: 18b5 febd dce9 b5bd
